…
The SVM model achieved a very high accuracy. Only one control samples was mislabelled and identified as CHARGE. From the individuals with candidate pathogenic variants, all but 3 were classified under their right disease. 3 individuals with CHD7 variant were classified as control, but we cannot state whether they are a classification error or whether these individuals do not have the pathogenic methylation pattern.

# TCGA model

## Description

We train a CNN model in TCGA whose goal was to classify samples into their tumor subtype, including all control tissues as one category. The input contained 9813 samples (80% training/20% test) and the 337,673 CpGs with variability in TCGA. Then, the model had the following layers:

| Layer (type)                  | Output Shape      | Param    |
|-------------------------------|-------------------|----------|
| conv1d_1 (Conv1D)             | (None, 42202, 12) | 780      |
| activation_1 (Activation)     | (None, 42202, 12) | 0        |
| max_pooling1d_1 (MaxPooling1) | (None, 5275, 12)  | 0        |
| flatten_1 (Flatten)           | (None, 63300)     | 0        |
| dense_1 (Dense)               | (None, 256)       | 16205056 |
| dense_2 (Dense)               | (None, 34)        | 8738     |

Hyperparameters (from random search):

-   CNN kernel size: 64
-   CNN stride: 8
-   Max pool size: 8
-   Activation: relu

## CNN output

### General pattern

We first evaluated whether the output of the CNN layers still contained signal to differentiate the individuals by disease.

```{r}
tcga_cnn <- read_delim("../results/gse97362_TCGA/2021-09-28/model_features/flatten_1.tsv", delim = "\t")
…
en, some Kabuki samples are identified as CHARGE.

Summary: The dense layer does not contain enough information to differentiate cases and controls.

# Blood model

## Description

We trained a CNN model in a blood reference dataset whose goal was to classifiy samples into their sex. The input contained the 3528 samples (80% training/20% test) 470870 CpGs present in the original dataset. Then, the model had the following layers:

| Layer (type)                  | Output Shape      | Param \#  |
|-------------------------------|-------------------|-----------|
| conv1d_1 (Conv1D)             | (None, 117715, 2) | 30        |
| activation_1 (Activation)     | (None, 117715, 2) | 0         |
| max_pooling1d_1 (MaxPooling1) | (None, 58857, 2)  | 0         |
| flatten_1 (Flatten)           | (None, 117714)    | 0         |
| dense_1 (Dense)               | (None, 1024)      | 120540160 |
| dense_2 (Dense)               | (None, 2)         | 2050      |

Hyperparameters (from random search):

-   CNN kernel size: 13
-   CNN stride: 4
-   Max pool size: 2
-   Activation: relu

## CNN output

### General pattern

We first evaluated whether the output of the CNN layers still contained signal to differentiate the individuals by disease.

```{r}
blood_cnn <- read_delim("../results/gse97362_Blood/2021-09-28/model_features/flatten_1.tsv", delim = "\t")
…
